…
/mnt/d/OneDrive - Tufts/RQL-Comparison/venv/lib/python3.12/site-packages/pygame/pkgdata.py:25: UserWarning: pkg_resources is deprecated as an API. See https://setuptools.pypa.io/en/latest/pkg_resources.html. The pkg_resources package is slated for removal as early as 2025-11-30. Refrain from using this package or pin to Setuptools<81.
  from pkg_resources import resource_stream, resource_exists
INFO - imitation.scripts.ingredients.rl - RL algorithm: <class 'stable_baselines3.sac.sac.SAC'>
INFO - imitation.scripts.ingredients.rl - Policy network summary:
 SACPolicy(
  (actor): Actor(
    (features_extractor): FlattenExtractor(
      (flatten): Flatten(start_dim=1, end_dim=-1)
    )
    (latent_pi): Sequential(
      (0): Linear(in_features=12, out_features=256, bias=True)
      (1): ReLU()
      (2): Linear(in_features=256, out_features=256, bias=True)
      (3): ReLU()
      (4): Linear(in_features=256, out_features=256, bias=True)
      (5): ReLU()
    )
    (mu): Linear(in_features=256, out_features=2, bias=True)
    (log_std): Linear(in_features=256, out_features=2, bias=True)
  )
  (critic): ContinuousCritic(
    (features_extractor): FlattenExtractor(
      (flatten): Flatten(start_dim=1, end_dim=-1)
    )
    (qf0): Sequential(
      (0): Linear(in_features=14, out_features=256, bias=True)
      (1): ReLU()
      (2): Linear(in_features=256, out_features=256, bias=True)
      (3): ReLU()
      (4): Linear(in_features=256, out_features=256, bias=True)
      (5): ReLU()
      (6): Linear(in_features=256, out_features=1, bias=True)
    )
    (qf1): Sequential(
      (0): Linear(in_features=14, out_features=256, bias=True)
      (1): ReLU()
      (2): Linear(in_features=256, out_features=256, bias=True)
      (3): ReLU()
      (4): Linear(in_features=256, out_features=256, bias=True)
      (5): ReLU()
      (6): Linear(in_features=256, out_features=1, bias=True)
    )
  )
  (critic_target): ContinuousCritic(
    (features_extractor): FlattenExtractor(
      (flatten): Flatten(start_dim=1, end_dim=-1)
    )
    (qf0): Sequential(
      (0): Linear(in_features=14, out_features=256, bias=True)
      (1): ReLU()
      (2): Linear(in_features=256, out_features=256, bias=True)
      (3): ReLU()
      (4): Linear(in_features=256, out_features=256, bias=True)
      (5): ReLU()
      (6): Linear(in_features=256, out_features=1, bias=True)
    )
    (qf1): Sequential(
      (0): Linear(in_features=14, out_features=256, bias=True)
      (1): ReLU()
      (2): Linear(in_features=256, out_features=256, bias=True)
      (3): ReLU()
      (4): Linear(in_features=256, out_features=256, bias=True)
      (5): ReLU()
      (6): Linear(in_features=256, out_features=1, bias=True)
    )
  )
)
---------------------------------
| rollout/           |          |
|    ep_len_mean     | 100      |
|    ep_rew_mean     | -58.6    |
|    success_rate    | 0        |
| time/              |          |
|    episodes        | 4        |
|    fps             | 11       |
|    time_elapsed    | 35       |
|    total_timesteps | 400      |
| train/             |          |
…
